data.pth (torch, 5034 bytes, 6 tensors)

l1.weight f4 [8, 46]
0.3502756 0.21054468 0.08338407 -0.17902976 -0.24016602 0.7218695 -0.18029019 -0.0032931734
0.19988342 -0.4758917 -0.05552382 0.042003352 -0.28511336 -0.06533961 -0.4757845 0.017359527
-0.1814342 0.50834155 -0.47608024 -0.47551805 -0.47575048 -0.50002563 -0.100448206 -0.23523647
0.53237885 0.37891123 0.18177404 0.13174917 0.02991039 0.50917506 0.1478673 -0.0052352236
0.04049635 -0.4757752 0.17892611 -0.09148622 0.25935164 0.61106557 -0.029143892 0.6068447
0.5855761 -0.061417308 0.13860272 0.01398248 0.3966814 0.268419 -0.020249205 0.0035951773
0.042968642 0.31941202 0.07286006 -0.43156308 0.28679645 0.106613204 -0.16157839 0.6742789
0.63461584 0.06353013 0.24067757 0.004050645 0.74522096 0.6737461 0.48437768 -0.65841484
0.4979775 0.45428702 0.46830064 0.65976715 0.4952988 0.18008238 -0.29906052 0.3687296
0.0570937 0.15038873 0.64165664 0.38926175 0.055910304 -0.15902553 -0.08363917 0.7893002
0.27947697 0.5280861 -0.3134958 0.22121869 -0.000776389 -0.45687705 -0.39845484 0.11589874
0.13382705 -0.13856547 0.14075981 0.33730608 -0.062030256 0.018762881 0.5002011 0.32502225
0.6290353 0.27628398 0.3718247 0.3062696 0.40543917 0.413408 0.3371911 0.32605276
0.050619762 0.64232886 0.4218057 0.25957704 0.028778173 0.41683653 0.18331814 0.13761932
0.025588166 0.03718266 0.43860805 0.27574062 0.33248824 -0.15710847 -0.041442003 0.45972893
0.4161933 -0.017574653 0.41222858 0.6049731 0.58712256 0.4226827 -0.14993855 -0.043536693
0.2468088 -0.54241854 0.4895164 -0.7167782 -0.7163546 0.09762111 -0.27869672 0.4281963
0.25422695 -0.17426652 0.0705221 0.20539203 0.54010975 -0.07023117 0.102333955 -0.30460814
0.39716265 0.39942983 0.5956105 -0.14073144 -0.25494716 0.5057548 -0.24166918 0.49243215
-0.24106757 -0.06623252 -0.06286259 -0.30469823 -0.30446997 -0.30455244 -0.30443645 -0.40069717
0.44198027 -0.014992931 -0.4779006 0.69532895 0.25667548 0.48709604 -0.29521483 0.695277
0.5716515 0.75403345 0.7155851 -0.28263357 0.4779422 0.04088943 -0.2504936 0.7123218
0.48910967 -0.13356923 0.192525 -0.1580903 0.3695447 0.6694262 0.42660537 0.6917446
0.06047374 -0.11191538 0.4416777 0.18400265 0.40298206 -0.15068136 0.48812184 0.44928455
0.44963896 0.60056865 0.29792646 0.3488696 0.37287918 0.50445366 0.55731434 0.4089655
0.30197933 0.023593308 0.15732656 0.37112206 0.48077092 0.03268792 0.2616183 0.22666968
-0.12384762 0.14239936 -0.03993582 0.42645633 0.3515785 -0.022149427 0.36432454 0.636367
0.5813785 0.4776389 0.024947833 -0.07092677 -0.053170126 -0.34879777 0.23549886 -0.49153432
-0.49243477 0.232729 -0.12967621 0.44465438 0.15365848 -0.07034926 0.24767669 0.4260853
0.5716078 0.28801277 0.5797237 0.5097124 -0.1650442 0.51210123 0.38927948 -0.71074414
-0.09582952 0.5399236 0.26857585 0.5929389 -0.7230459 -0.07402359 0.46779412 0.6394455
0.77217203 0.6571986 0.6883087 0.32449934 -0.0005201388 0.31055757 0.29157257 -0.22608355
00000000: 5357 b33e 0699 573e 44c5 aa3d 9453 37be
00000010: 15ee 75be 71cc 383f fe9d 38be 48d2 57bb
00000020: 3dae 4c3e 14a8 f3be f26c 63bd b50b 2c3d
00000030: 61fa 91be c6d0 85bd 079a f3be 9135 8e3c
00000040: e3c9 39be ac22 023f cac0 f3be 1a77 f3be
00000050: 9195 f3be ae01 00bf cab7 cdbd d4e1 70be
00000060: fb49 083f a700 c23e f922 3a3e 41e9 063e
00000070: a206 f53c 4c59 023f 876a 173e 3d8c abbb
00000080: 80df 253d cf98 f3be 6838 373e 215d bbbd
00000090: bdc9 843e cb6e 1c3f 2cbf eebc 2d5a 1b3f
000000a0: 51e8 153f b790 7bbd dfed 0d3e c616 653c
000000b0: d319 cb3e 376e 893e a9e1 a5bc 119d 6b3b
000000c0: e3ff 2f3d f989 a33e a837 953d d6f5 dcbe
000000d0: fcd6 923e 0658 da3d ce74 25be 8b9d 2c3f
000000e0: 2f76 223f 161c 823d 2e74 763e 46bb 843b
000000f0: cdc6 3e3f a07a 2c3f 5a00 f83e e08d 28bf
00000100: e8f6 fe3e 4f98 e83e 1ac5 ef3e 80e6 283f
00000110: ce97 fd3e 8467 383e 761e 99be 20ca bc3e
00000120: 15db 693d 81ff 193e 9c43 243f 514d c73e
00000130: 3402 653d 97d7 22be 034b abbd 940f 4a3f
00000140: 9b17 8f3e a730 073f 8682 a0be 2787 623e
00000150: 9586 4bba caeb e9be 4602 ccbe 525c ed3d
00000160: f509 093e 1be4 0dbe 5723 103e 62b3 ac3e
00000170: 7013 7ebd 9db4 993c 2e0d 003f 5169 a63e
00000180: 7508 213f 1875 8d3e cf5f be3e 5ecf 9c3e
00000190: b995 cf3e 37aa d33e 50a4 ac3e 63f0 a63e
000001a0: ab56 4f3d aa6f 243f ebf6 d73e 48e7 843e
000001b0: 34c0 eb3c 996b d53e c0b7 3b3e 14ec 0c3e
000001c0: 469e d13c d84c 183d 3c91 e03e e02d 8d3e
000001d0: e63b aa3e 0be1 20be 17bf 29bd 9761 eb3e
000001e0: 4a17 d53e b8f8 8fbc a00f d33e 84df 1a3f
000001f0: aa4d 163f de69 d83e 7e89 19be 8853 32bd
00000200: 72bb 7c3e f1db 0abf e5a1 fa3e c77e 37bf
00000210: 0463 37bf 94ed c73d 56b1 8ebe 8c3c db3e
00000220: 092a 823e ec72 32be e46d 903d 4a52 523e
00000230: a244 0a3f 5cd5 8fbd 7794 d13d 99f5 9bbe
00000240: e758 cb3e 1182 cc3e ee79 183f e71b 10be
00000250: 6f88 82be 2679 013f 2078 77be 1120 fc3e
00000260: 6bda 76be eaa4 87bd 1abe 80bd 6801 9cbe
00000270: 7de3 9bbe 4cee 9bbe 18df 9bbe 2e28 cdbe
00000280: 3d4b e23e e9a4 75bc 63af f4be 1401 323f
00000290: f86a 833e a764 f93e 6626 97be acfd 313f
000002a0: c157 123f 5608 413f 9630 373f 59b5 90be
000002b0: d7b4 f43e ad7b 273d b240 80be b95a 363f
000002c0: 956c fa3e 5fc6 08be 4625 453e 6ce2 21be
000002d0: f734 bd3e 845f 2b3f 056c da3e 2d16 313f
000002e0: 50b3 773d e433 e5bd 9423 e23e 316b 3c3e
000002f0: aa53 ce3e 374c 1abe 1beb f93e a008 e63e
00000300: 1437 e63e debe 193f d189 983e 099f b23e
00000310: 05ea be3e e023 013f 27ac 0e3f ed63 d13e
00000320: 099d 9a3e c146 c13c 371a 213e b603 be3e
00000330: 9b27 f63e c5e3 053d d5f2 853e 191c 683e
00000340: d2a3 fdbd 23d1 113e be93 23bd 7c58 da3e
00000350: 1902 b43e b772 b5bc bf88 ba3e f3e8 223f
00000360: 39d5 143f 168d f43e 665f cc3c 0e42 91bd
00000370: ebc8 59bd 9f95 b2be 9d26 713e 63aa fbbe
00000380: 6920 fcbe 8350 6e3e d7c9 04be bda9 e33e
00000390: a658 1d3e 4613 90bd f59e 7d3e da27 da3e
000003a0: e454 123f 6976 933e c668 143f 837c 023f
000003b0: 5901 29be 1119 033f a44f c73e 54f3 35bf
000003c0: 4442 c4bd 6f38 0a3f c682 893e d8ca 173f
000003d0: 8919 39bf ae99 97bd b682 ef3e b3b2 233f
000003e0: 11ad 453f 2b3e 283f 0035 303f c724 a63e
000003f0: ed59 08ba 6701 9f3e 0049 953e 7282 67be

l1.bias f4 [8]
0.47583342 0.85497385 0.7168788 0.30446187 0.4915541 0.72324026 0.6731372 0.5281137
00000000: 70a0 f33e 91df 5a3f 5e85 373f 6de2 9b3e
00000010: fbac fb3e 4626 393f b852 2c3f 7632 073f

l2.weight f4 [8, 8]
0.38918352 0.65248173 -0.99342304 0.7678506 -0.3641035 -0.032817964 0.44609782 1.4927258
-0.09261972 0.06341988 0.032843858 -0.15964644 -0.2517786 0.00818938 0.18559816 -0.24559946
-0.92948216 0.692316 0.9693832 0.8986471 1.0259484 0.75642437 -1.3925923 0.3175962
-0.11954717 -0.10072026 0.25282392 -0.21503423 -0.025186539 0.005996406 -0.26570606 -0.24726199
-0.9006462 0.44103667 0.19179784 -1.1160415 0.38949195 0.34646082 -0.4586474 0.694587
-1.140683 1.0122266 -0.015622757 -0.55067664 -0.05420591 0.21610853 0.31826067 1.1368153
0.213818 1.4016515 1.3410877 -0.19211085 1.1056608 -0.23500435 0.6317144 -1.1674359
0.5659237 -0.5161706 0.32194114 -0.837554 -0.073742 1.7647194 0.42296615 1.3931555
00000000: 1043 c73e 0b09 273f f950 7ebf db91 443f
00000010: c66b babe 216c 06bd ef66 e43e a411 bf3f
00000020: 68af bdbd 48e2 813d 4887 063d 5b7a 23be
00000030: 20e9 80be c02c 063c 720d 3e3e 6d7e 7bbe
00000040: 8bf2 6dbf 9f3b 313f 7f29 783f bd0d 663f
00000050: 4752 833f 07a5 413f 7740 b2bf f89b a23e
00000060: 26d5 f4bd 6c46 cebd 2372 813e ef31 5cbe
00000070: 0054 cebc 807d c43b a00a 88be 3f32 7dbe
00000080: c090 66bf 8fcf e13e a766 443e 73da 8ebf
00000090: 7d6b c73e 5063 b13e d5d3 eabe 74d0 313f
000000a0: e701 92bf a490 813f 98f6 7fbc 25f9 0cbf
000000b0: 0407 5ebd 8e4b 5d3e 10f3 a23e 2a83 913f
000000c0: 1bf3 5a3e 5169 b33f c3a8 ab3f b5b8 44be
000000d0: 4b86 8d3f fba4 70be 09b8 213f 8a6e 95bf
000000e0: 60e0 103f c223 04bf 78d5 a43e f069 56bf
000000f0: 0c06 97bd 53e2 e13f 058f d83e eb52 b23f

l2.bias f4 [8]
0.05876457 -0.22416812 0.025004812 -0.104233116 0.4668918 0.44704026 0.6541279 0.25077292
00000000: 1eb3 703d 548c 65be e4d6 cc3c 2c78 d5bd
00000010: 710c ef3e 76e2 e43e ed74 273f 4f65 803e

l3.weight f4 [6, 8]
1.0588807 -0.117022276 -0.9769052 -0.240176 -0.16818458 -0.46232906 -0.15623027 -1.2272967
-1.1554854 0.035321593 0.16523544 0.28228012 0.19250023 0.34099054 0.6001103 -1.8264569
-1.0355303 -0.29201442 -1.2497078 0.3015385 -0.44043726 -0.44687393 0.14434148 0.6959578
-0.34853658 0.21807405 0.2982532 -0.29735655 0.8077705 0.53054434 -0.64848274 0.009266505
-1.2765541 0.15059629 0.88406146 0.08488098 -0.67687577 -1.4872506 0.1724368 -0.6653457
0.5625875 0.111985326 -1.1104753 0.11674604 -0.10305246 0.27659497 -1.9229236 0.7227669
00000000: 6789 873f 60a9 efbd 7616 7abf b3f0 75be
00000010: 9438 2cbe 65b6 ecbe d4fa 1fbe 0f18 9dbf
00000020: f2e6 93bf 60ad 103d 7b33 293e 0587 903e
00000030: c81e 453e 5096 ae3e d4a0 193f 57c9 e9bf
00000040: 428c 84bf ea82 95be 6df6 9fbf 4163 9a3e
00000050: fe80 e1be a9cc e4be 41ce 133e 4a2a 323f
00000060: 6373 b2be ce4e 5f3e a5b4 983e 1e3f 98be
00000070: 0cca 4e3f c1d1 073f f702 26bf 8ad2 173c
00000080: 2066 a3bf ea35 1a3e da51 623f 14d6 ad3d
00000090: bb47 2dbf 3a5e bebf 4693 303e 1954 2abf
000000a0: bc05 103f 9058 e53d 0e24 8ebf 8c18 ef3d
000000b0: 2b0d d3bd db9d 8d3e 5c22 f6bf 4007 393f

l3.bias f4 [6]
0.34051198 0.08136615 0.32842067 -0.6621574 -0.49962097 -0.13748984
00000000: 9657 ae3e 4ca3 a63d c126 a83e 2683 29bf
00000010: 52ce ffbe 23ca 0cbe
